PWC_Recons(
  (in_conv): Sequential(
    (0): Conv2d(3, 128, kernel_size=(3, 3), stride=(1, 1), padding=(1, 1))
  )
  (extra_feat): Sequential(
    (0): ResBlock(
      (conv1): Conv2d(128, 128, kernel_size=(3, 3), stride=(1, 1), padding=(1, 1))
      (conv2): Conv2d(128, 128, kernel_size=(3, 3), stride=(1, 1), padding=(1, 1))
      (relu): ReLU(inplace=True)
    )
    (1): ResBlock(
      (conv1): Conv2d(128, 128, kernel_size=(3, 3), stride=(1, 1), padding=(1, 1))
      (conv2): Conv2d(128, 128, kernel_size=(3, 3), stride=(1, 1), padding=(1, 1))
      (relu): ReLU(inplace=True)
    )
    (2): ResBlock(
      (conv1): Conv2d(128, 128, kernel_size=(3, 3), stride=(1, 1), padding=(1, 1))
      (conv2): Conv2d(128, 128, kernel_size=(3, 3), stride=(1, 1), padding=(1, 1))
      (relu): ReLU(inplace=True)
    )
  )
  (fusion_conv): Sequential(
    (0): Conv2d(640, 128, kernel_size=(3, 3), stride=(1, 1), padding=(1, 1))
  )
  (recons_net): Sequential(
    (0): ResBlock(
      (conv1): Conv2d(128, 128, kernel_size=(3, 3), stride=(1, 1), padding=(1, 1))
      (conv2): Conv2d(128, 128, kernel_size=(3, 3), stride=(1, 1), padding=(1, 1))
      (relu): ReLU(inplace=True)
    )
    (1): ResBlock(
      (conv1): Conv2d(128, 128, kernel_size=(3, 3), stride=(1, 1), padding=(1, 1))
      (conv2): Conv2d(128, 128, kernel_size=(3, 3), stride=(1, 1), padding=(1, 1))
      (relu): ReLU(inplace=True)
    )
    (2): ResBlock(
      (conv1): Conv2d(128, 128, kernel_size=(3, 3), stride=(1, 1), padding=(1, 1))
      (conv2): Conv2d(128, 128, kernel_size=(3, 3), stride=(1, 1), padding=(1, 1))
      (relu): ReLU(inplace=True)
    )
    (3): ResBlock(
      (conv1): Conv2d(128, 128, kernel_size=(3, 3), stride=(1, 1), padding=(1, 1))
      (conv2): Conv2d(128, 128, kernel_size=(3, 3), stride=(1, 1), padding=(1, 1))
      (relu): ReLU(inplace=True)
    )
    (4): ResBlock(
      (conv1): Conv2d(128, 128, kernel_size=(3, 3), stride=(1, 1), padding=(1, 1))
      (conv2): Conv2d(128, 128, kernel_size=(3, 3), stride=(1, 1), padding=(1, 1))
      (relu): ReLU(inplace=True)
    )
    (5): ResBlock(
      (conv1): Conv2d(128, 128, kernel_size=(3, 3), stride=(1, 1), padding=(1, 1))
      (conv2): Conv2d(128, 128, kernel_size=(3, 3), stride=(1, 1), padding=(1, 1))
      (relu): ReLU(inplace=True)
    )
    (6): ResBlock(
      (conv1): Conv2d(128, 128, kernel_size=(3, 3), stride=(1, 1), padding=(1, 1))
      (conv2): Conv2d(128, 128, kernel_size=(3, 3), stride=(1, 1), padding=(1, 1))
      (relu): ReLU(inplace=True)
    )
    (7): ResBlock(
      (conv1): Conv2d(128, 128, kernel_size=(3, 3), stride=(1, 1), padding=(1, 1))
      (conv2): Conv2d(128, 128, kernel_size=(3, 3), stride=(1, 1), padding=(1, 1))
      (relu): ReLU(inplace=True)
    )
    (8): ResBlock(
      (conv1): Conv2d(128, 128, kernel_size=(3, 3), stride=(1, 1), padding=(1, 1))
      (conv2): Conv2d(128, 128, kernel_size=(3, 3), stride=(1, 1), padding=(1, 1))
      (relu): ReLU(inplace=True)
    )
    (9): ResBlock(
      (conv1): Conv2d(128, 128, kernel_size=(3, 3), stride=(1, 1), padding=(1, 1))
      (conv2): Conv2d(128, 128, kernel_size=(3, 3), stride=(1, 1), padding=(1, 1))
      (relu): ReLU(inplace=True)
    )
    (10): ResBlock(
      (conv1): Conv2d(128, 128, kernel_size=(3, 3), stride=(1, 1), padding=(1, 1))
      (conv2): Conv2d(128, 128, kernel_size=(3, 3), stride=(1, 1), padding=(1, 1))
      (relu): ReLU(inplace=True)
    )
    (11): ResBlock(
      (conv1): Conv2d(128, 128, kernel_size=(3, 3), stride=(1, 1), padding=(1, 1))
      (conv2): Conv2d(128, 128, kernel_size=(3, 3), stride=(1, 1), padding=(1, 1))
      (relu): ReLU(inplace=True)
    )
    (12): ResBlock(
      (conv1): Conv2d(128, 128, kernel_size=(3, 3), stride=(1, 1), padding=(1, 1))
      (conv2): Conv2d(128, 128, kernel_size=(3, 3), stride=(1, 1), padding=(1, 1))
      (relu): ReLU(inplace=True)
    )
    (13): ResBlock(
      (conv1): Conv2d(128, 128, kernel_size=(3, 3), stride=(1, 1), padding=(1, 1))
      (conv2): Conv2d(128, 128, kernel_size=(3, 3), stride=(1, 1), padding=(1, 1))
      (relu): ReLU(inplace=True)
    )
    (14): ResBlock(
      (conv1): Conv2d(128, 128, kernel_size=(3, 3), stride=(1, 1), padding=(1, 1))
      (conv2): Conv2d(128, 128, kernel_size=(3, 3), stride=(1, 1), padding=(1, 1))
      (relu): ReLU(inplace=True)
    )
    (15): ResBlock(
      (conv1): Conv2d(128, 128, kernel_size=(3, 3), stride=(1, 1), padding=(1, 1))
      (conv2): Conv2d(128, 128, kernel_size=(3, 3), stride=(1, 1), padding=(1, 1))
      (relu): ReLU(inplace=True)
    )
    (16): ResBlock(
      (conv1): Conv2d(128, 128, kernel_size=(3, 3), stride=(1, 1), padding=(1, 1))
      (conv2): Conv2d(128, 128, kernel_size=(3, 3), stride=(1, 1), padding=(1, 1))
      (relu): ReLU(inplace=True)
    )
    (17): ResBlock(
      (conv1): Conv2d(128, 128, kernel_size=(3, 3), stride=(1, 1), padding=(1, 1))
      (conv2): Conv2d(128, 128, kernel_size=(3, 3), stride=(1, 1), padding=(1, 1))
      (relu): ReLU(inplace=True)
    )
    (18): ResBlock(
      (conv1): Conv2d(128, 128, kernel_size=(3, 3), stride=(1, 1), padding=(1, 1))
      (conv2): Conv2d(128, 128, kernel_size=(3, 3), stride=(1, 1), padding=(1, 1))
      (relu): ReLU(inplace=True)
    )
    (19): ResBlock(
      (conv1): Conv2d(128, 128, kernel_size=(3, 3), stride=(1, 1), padding=(1, 1))
      (conv2): Conv2d(128, 128, kernel_size=(3, 3), stride=(1, 1), padding=(1, 1))
      (relu): ReLU(inplace=True)
    )
  )
  (out_conv): Sequential(
    (0): Conv2d(128, 128, kernel_size=(3, 3), stride=(1, 1), padding=(1, 1))
    (1): Conv2d(128, 3, kernel_size=(3, 3), stride=(1, 1), padding=(1, 1))
  )
  (upsample_layers): Sequential(
    (0): Conv2d(128, 512, kernel_size=(3, 3), stride=(1, 1), padding=(1, 1))
    (1): PixelShuffle(upscale_factor=2)
    (2): Conv2d(128, 512, kernel_size=(3, 3), stride=(1, 1), padding=(1, 1))
    (3): PixelShuffle(upscale_factor=2)
  )
  (flow_net): Flow_PWC(
    (moduleNetwork): Network(
      (moduleExtractor): Extractor(
        (moduleOne): Sequential(
          (0): Conv2d(3, 16, kernel_size=(3, 3), stride=(2, 2), padding=(1, 1))
          (1): LeakyReLU(negative_slope=0.1)
          (2): Conv2d(16, 16, kernel_size=(3, 3), stride=(1, 1), padding=(1, 1))
          (3): LeakyReLU(negative_slope=0.1)
          (4): Conv2d(16, 16, kernel_size=(3, 3), stride=(1, 1), padding=(1, 1))
          (5): LeakyReLU(negative_slope=0.1)
        )
        (moduleTwo): Sequential(
          (0): Conv2d(16, 32, kernel_size=(3, 3), stride=(2, 2), padding=(1, 1))
          (1): LeakyReLU(negative_slope=0.1)
          (2): Conv2d(32, 32, kernel_size=(3, 3), stride=(1, 1), padding=(1, 1))
          (3): LeakyReLU(negative_slope=0.1)
          (4): Conv2d(32, 32, kernel_size=(3, 3), stride=(1, 1), padding=(1, 1))
          (5): LeakyReLU(negative_slope=0.1)
        )
        (moduleThr): Sequential(
          (0): Conv2d(32, 64, kernel_size=(3, 3), stride=(2, 2), padding=(1, 1))
          (1): LeakyReLU(negative_slope=0.1)
          (2): Conv2d(64, 64, kernel_size=(3, 3), stride=(1, 1), padding=(1, 1))
          (3): LeakyReLU(negative_slope=0.1)
          (4): Conv2d(64, 64, kernel_size=(3, 3), stride=(1, 1), padding=(1, 1))
          (5): LeakyReLU(negative_slope=0.1)
        )
        (moduleFou): Sequential(
          (0): Conv2d(64, 96, kernel_size=(3, 3), stride=(2, 2), padding=(1, 1))
          (1): LeakyReLU(negative_slope=0.1)
          (2): Conv2d(96, 96, kernel_size=(3, 3), stride=(1, 1), padding=(1, 1))
          (3): LeakyReLU(negative_slope=0.1)
          (4): Conv2d(96, 96, kernel_size=(3, 3), stride=(1, 1), padding=(1, 1))
          (5): LeakyReLU(negative_slope=0.1)
        )
        (moduleFiv): Sequential(
          (0): Conv2d(96, 128, kernel_size=(3, 3), stride=(2, 2), padding=(1, 1))
          (1): LeakyReLU(negative_slope=0.1)
          (2): Conv2d(128, 128, kernel_size=(3, 3), stride=(1, 1), padding=(1, 1))
          (3): LeakyReLU(negative_slope=0.1)
          (4): Conv2d(128, 128, kernel_size=(3, 3), stride=(1, 1), padding=(1, 1))
          (5): LeakyReLU(negative_slope=0.1)
        )
        (moduleSix): Sequential(
          (0): Conv2d(128, 196, kernel_size=(3, 3), stride=(2, 2), padding=(1, 1))
          (1): LeakyReLU(negative_slope=0.1)
          (2): Conv2d(196, 196, kernel_size=(3, 3), stride=(1, 1), padding=(1, 1))
          (3): LeakyReLU(negative_slope=0.1)
          (4): Conv2d(196, 196, kernel_size=(3, 3), stride=(1, 1), padding=(1, 1))
          (5): LeakyReLU(negative_slope=0.1)
        )
      )
      (moduleTwo): Decoder(
        (moduleUpflow): ConvTranspose2d(2, 2, kernel_size=(4, 4), stride=(2, 2), padding=(1, 1))
        (moduleUpfeat): ConvTranspose2d(597, 2, kernel_size=(4, 4), stride=(2, 2), padding=(1, 1))
        (moduleOne): Sequential(
          (0): Conv2d(117, 128, kernel_size=(3, 3), stride=(1, 1), padding=(1, 1))
          (1): LeakyReLU(negative_slope=0.1)
        )
        (moduleTwo): Sequential(
          (0): Conv2d(245, 128, kernel_size=(3, 3), stride=(1, 1), padding=(1, 1))
          (1): LeakyReLU(negative_slope=0.1)
        )
        (moduleThr): Sequential(
          (0): Conv2d(373, 96, kernel_size=(3, 3), stride=(1, 1), padding=(1, 1))
          (1): LeakyReLU(negative_slope=0.1)
        )
        (moduleFou): Sequential(
          (0): Conv2d(469, 64, kernel_size=(3, 3), stride=(1, 1), padding=(1, 1))
          (1): LeakyReLU(negative_slope=0.1)
        )
        (moduleFiv): Sequential(
          (0): Conv2d(533, 32, kernel_size=(3, 3), stride=(1, 1), padding=(1, 1))
          (1): LeakyReLU(negative_slope=0.1)
        )
        (moduleSix): Sequential(
          (0): Conv2d(565, 2, kernel_size=(3, 3), stride=(1, 1), padding=(1, 1))
        )
      )
      (moduleThr): Decoder(
        (moduleUpflow): ConvTranspose2d(2, 2, kernel_size=(4, 4), stride=(2, 2), padding=(1, 1))
        (moduleUpfeat): ConvTranspose2d(629, 2, kernel_size=(4, 4), stride=(2, 2), padding=(1, 1))
        (moduleOne): Sequential(
          (0): Conv2d(149, 128, kernel_size=(3, 3), stride=(1, 1), padding=(1, 1))
          (1): LeakyReLU(negative_slope=0.1)
        )
        (moduleTwo): Sequential(
          (0): Conv2d(277, 128, kernel_size=(3, 3), stride=(1, 1), padding=(1, 1))
          (1): LeakyReLU(negative_slope=0.1)
        )
        (moduleThr): Sequential(
          (0): Conv2d(405, 96, kernel_size=(3, 3), stride=(1, 1), padding=(1, 1))
          (1): LeakyReLU(negative_slope=0.1)
        )
        (moduleFou): Sequential(
          (0): Conv2d(501, 64, kernel_size=(3, 3), stride=(1, 1), padding=(1, 1))
          (1): LeakyReLU(negative_slope=0.1)
        )
        (moduleFiv): Sequential(
          (0): Conv2d(565, 32, kernel_size=(3, 3), stride=(1, 1), padding=(1, 1))
          (1): LeakyReLU(negative_slope=0.1)
        )
        (moduleSix): Sequential(
          (0): Conv2d(597, 2, kernel_size=(3, 3), stride=(1, 1), padding=(1, 1))
        )
      )
      (moduleFou): Decoder(
        (moduleUpflow): ConvTranspose2d(2, 2, kernel_size=(4, 4), stride=(2, 2), padding=(1, 1))
        (moduleUpfeat): ConvTranspose2d(661, 2, kernel_size=(4, 4), stride=(2, 2), padding=(1, 1))
        (moduleOne): Sequential(
          (0): Conv2d(181, 128, kernel_size=(3, 3), stride=(1, 1), padding=(1, 1))
          (1): LeakyReLU(negative_slope=0.1)
        )
        (moduleTwo): Sequential(
          (0): Conv2d(309, 128, kernel_size=(3, 3), stride=(1, 1), padding=(1, 1))
          (1): LeakyReLU(negative_slope=0.1)
        )
        (moduleThr): Sequential(
          (0): Conv2d(437, 96, kernel_size=(3, 3), stride=(1, 1), padding=(1, 1))
          (1): LeakyReLU(negative_slope=0.1)
        )
        (moduleFou): Sequential(
          (0): Conv2d(533, 64, kernel_size=(3, 3), stride=(1, 1), padding=(1, 1))
          (1): LeakyReLU(negative_slope=0.1)
        )
        (moduleFiv): Sequential(
          (0): Conv2d(597, 32, kernel_size=(3, 3), stride=(1, 1), padding=(1, 1))
          (1): LeakyReLU(negative_slope=0.1)
        )
        (moduleSix): Sequential(
          (0): Conv2d(629, 2, kernel_size=(3, 3), stride=(1, 1), padding=(1, 1))
        )
      )
      (moduleFiv): Decoder(
        (moduleUpflow): ConvTranspose2d(2, 2, kernel_size=(4, 4), stride=(2, 2), padding=(1, 1))
        (moduleUpfeat): ConvTranspose2d(529, 2, kernel_size=(4, 4), stride=(2, 2), padding=(1, 1))
        (moduleOne): Sequential(
          (0): Conv2d(213, 128, kernel_size=(3, 3), stride=(1, 1), padding=(1, 1))
          (1): LeakyReLU(negative_slope=0.1)
        )
        (moduleTwo): Sequential(
          (0): Conv2d(341, 128, kernel_size=(3, 3), stride=(1, 1), padding=(1, 1))
          (1): LeakyReLU(negative_slope=0.1)
        )
        (moduleThr): Sequential(
          (0): Conv2d(469, 96, kernel_size=(3, 3), stride=(1, 1), padding=(1, 1))
          (1): LeakyReLU(negative_slope=0.1)
        )
        (moduleFou): Sequential(
          (0): Conv2d(565, 64, kernel_size=(3, 3), stride=(1, 1), padding=(1, 1))
          (1): LeakyReLU(negative_slope=0.1)
        )
        (moduleFiv): Sequential(
          (0): Conv2d(629, 32, kernel_size=(3, 3), stride=(1, 1), padding=(1, 1))
          (1): LeakyReLU(negative_slope=0.1)
        )
        (moduleSix): Sequential(
          (0): Conv2d(661, 2, kernel_size=(3, 3), stride=(1, 1), padding=(1, 1))
        )
      )
      (moduleSix): Decoder(
        (moduleOne): Sequential(
          (0): Conv2d(81, 128, kernel_size=(3, 3), stride=(1, 1), padding=(1, 1))
          (1): LeakyReLU(negative_slope=0.1)
        )
        (moduleTwo): Sequential(
          (0): Conv2d(209, 128, kernel_size=(3, 3), stride=(1, 1), padding=(1, 1))
          (1): LeakyReLU(negative_slope=0.1)
        )
        (moduleThr): Sequential(
          (0): Conv2d(337, 96, kernel_size=(3, 3), stride=(1, 1), padding=(1, 1))
          (1): LeakyReLU(negative_slope=0.1)
        )
        (moduleFou): Sequential(
          (0): Conv2d(433, 64, kernel_size=(3, 3), stride=(1, 1), padding=(1, 1))
          (1): LeakyReLU(negative_slope=0.1)
        )
        (moduleFiv): Sequential(
          (0): Conv2d(497, 32, kernel_size=(3, 3), stride=(1, 1), padding=(1, 1))
          (1): LeakyReLU(negative_slope=0.1)
        )
        (moduleSix): Sequential(
          (0): Conv2d(529, 2, kernel_size=(3, 3), stride=(1, 1), padding=(1, 1))
        )
      )
      (moduleRefiner): Refiner(
        (moduleMain): Sequential(
          (0): Conv2d(565, 128, kernel_size=(3, 3), stride=(1, 1), padding=(1, 1))
          (1): LeakyReLU(negative_slope=0.1)
          (2): Conv2d(128, 128, kernel_size=(3, 3), stride=(1, 1), padding=(2, 2), dilation=(2, 2))
          (3): LeakyReLU(negative_slope=0.1)
          (4): Conv2d(128, 128, kernel_size=(3, 3), stride=(1, 1), padding=(4, 4), dilation=(4, 4))
          (5): LeakyReLU(negative_slope=0.1)
          (6): Conv2d(128, 96, kernel_size=(3, 3), stride=(1, 1), padding=(8, 8), dilation=(8, 8))
          (7): LeakyReLU(negative_slope=0.1)
          (8): Conv2d(96, 64, kernel_size=(3, 3), stride=(1, 1), padding=(16, 16), dilation=(16, 16))
          (9): LeakyReLU(negative_slope=0.1)
          (10): Conv2d(64, 32, kernel_size=(3, 3), stride=(1, 1), padding=(1, 1))
          (11): LeakyReLU(negative_slope=0.1)
          (12): Conv2d(32, 2, kernel_size=(3, 3), stride=(1, 1), padding=(1, 1))
        )
      )
    )
  )
  (kernel_net): KernelNet(
    (in_conv): Conv2d(15, 64, kernel_size=(3, 3), stride=(1, 1), padding=(1, 1))
    (body1): Sequential(
      (0): RCAB(
        (body): Sequential(
          (0): Conv2d(64, 64, kernel_size=(3, 3), stride=(1, 1), padding=(1, 1))
          (1): ReLU()
          (2): Conv2d(64, 64, kernel_size=(3, 3), stride=(1, 1), padding=(1, 1))
          (3): CALayer(
            (avg_pool): AdaptiveAvgPool2d(output_size=1)
            (conv_du): Sequential(
              (0): Conv2d(64, 4, kernel_size=(1, 1), stride=(1, 1))
              (1): ReLU()
              (2): Conv2d(4, 64, kernel_size=(1, 1), stride=(1, 1))
              (3): Sigmoid()
            )
          )
        )
      )
      (1): RCAB(
        (body): Sequential(
          (0): Conv2d(64, 64, kernel_size=(3, 3), stride=(1, 1), padding=(1, 1))
          (1): ReLU()
          (2): Conv2d(64, 64, kernel_size=(3, 3), stride=(1, 1), padding=(1, 1))
          (3): CALayer(
            (avg_pool): AdaptiveAvgPool2d(output_size=1)
            (conv_du): Sequential(
              (0): Conv2d(64, 4, kernel_size=(1, 1), stride=(1, 1))
              (1): ReLU()
              (2): Conv2d(4, 64, kernel_size=(1, 1), stride=(1, 1))
              (3): Sigmoid()
            )
          )
        )
      )
    )
    (global_pool): AdaptiveAvgPool2d(output_size=13)
    (body2): Sequential(
      (0): RCAB(
        (body): Sequential(
          (0): Conv2d(64, 64, kernel_size=(3, 3), stride=(1, 1), padding=(1, 1))
          (1): ReLU()
          (2): Conv2d(64, 64, kernel_size=(3, 3), stride=(1, 1), padding=(1, 1))
          (3): CALayer(
            (avg_pool): AdaptiveAvgPool2d(output_size=1)
            (conv_du): Sequential(
              (0): Conv2d(64, 4, kernel_size=(1, 1), stride=(1, 1))
              (1): ReLU()
              (2): Conv2d(4, 64, kernel_size=(1, 1), stride=(1, 1))
              (3): Sigmoid()
            )
          )
        )
      )
      (1): RCAB(
        (body): Sequential(
          (0): Conv2d(64, 64, kernel_size=(3, 3), stride=(1, 1), padding=(1, 1))
          (1): ReLU()
          (2): Conv2d(64, 64, kernel_size=(3, 3), stride=(1, 1), padding=(1, 1))
          (3): CALayer(
            (avg_pool): AdaptiveAvgPool2d(output_size=1)
            (conv_du): Sequential(
              (0): Conv2d(64, 4, kernel_size=(1, 1), stride=(1, 1))
              (1): ReLU()
              (2): Conv2d(4, 64, kernel_size=(1, 1), stride=(1, 1))
              (3): Sigmoid()
            )
          )
        )
      )
      (2): Conv2d(64, 32, kernel_size=(3, 3), stride=(1, 1), padding=(1, 1))
      (3): Conv2d(32, 1, kernel_size=(3, 3), stride=(1, 1), padding=(1, 1))
    )
    (fc_net): Sequential(
      (0): Linear(in_features=169, out_features=1000, bias=True)
      (1): Linear(in_features=1000, out_features=169, bias=True)
      (2): Softmax(dim=None)
    )
  )
)
[16:29:37] [运行:00:00:02] Epoch   1 with Lr 1.00e-4
[17:08:21] [运行:00:38:46] [100/838 (11.9%)]	进度: [2400/20090]	预计剩余时间: 285.9分钟	PSNR: 22.96	Loss: [total: 0.0589][L1: 0.0436][cycle: 0.0127][boundaries: 0.0021][sparse: 0.0275][center: 0.0005][mid: 0.0000]
[17:44:53] [运行:01:15:18] [200/838 (23.9%)]	进度: [4800/20090]	预计剩余时间: 240.1分钟	PSNR: 23.65	Loss: [total: 0.0488][L1: 0.0390][cycle: 0.0084][boundaries: 0.0010][sparse: 0.0168][center: 0.0002][mid: 0.0000]
…
